web/public/mnist_dnn.onnx (onnx, 948357 bytes, 14 tensors)

net.1.weight f4 [256, 784]
0	0x3c2c2c5c	0.010508623
1	0xbc25ff2e	-0.01013164
2	0xbca30f73	-0.019904828
3	0x3ba88dff	0.0051438804
4	0x3cbe112d	0.02320155
5	0x3cecd8f1	0.02891204
6	0x3c23f441	0.010006965
7	0xbd032e0e	-0.032026343
8	0xbd062611	-0.032751147
9	0xba922613	-0.0011150263
10	0x3c435818	0.011922859
11	0xbc9417ef	-0.018077819
12	0x3d341044	0.043960825
13	0xbaa56a2f	-0.0012620146
14	0x3d29ad44	0.041425005
15	0xbc933a8e	-0.017972257
16	0x3ccfa205	0.025345812
17	0x3cc9f721	0.024653973
18	0xbc2d967b	-0.010594959
19	0x3c03eb33	0.008051681
20	0x3b68dafb	0.0035530913
21	0xbae9ce3e	-0.0017837954
22	0xbcfef2fd	-0.031121725
23	0xbc846c24	-0.016164847
24	0xbbb10ec3	-0.005403371
25	0xbcc16477	-0.023607476
26	0xbc0fd597	-0.008778951
27	0xbd0f3efb	-0.034972172
28	0x3cabf231	0.02098951
29	0x3cbf7a09	0.02337362
30	0x3c16f18f	0.0092128655
31	0x3cfa681e	0.030567225
32	0xbc9e9e0b	-0.01936247
33	0x3c407b17	0.011748097
34	0xbc3f2d2a	-0.011668483
35	0xbc0248fe	-0.007951973
36	0x3ab902c7	0.0014115208
37	0xbd3cc87c	-0.046089634
38	0xbc155b20	-0.009115964
39	0x3cb51ddd	0.022108966
40	0x3c9f59af	0.019451944
41	0x3c72450b	0.014786969
42	0xbbeec72a	-0.007286926
43	0x3d2d905c	0.042374
44	0xbcbf984c	-0.02338805
45	0x3c85332c	0.016259752
46	0x3d1673e7	0.036731627
47	0x3aa8f86e	0.0012891421
48	0x3c55ab79	0.013041371
49	0xbc7dbcd5	-0.015486916
50	0x3d48a106	0.04898169
51	0x3da2c268	0.07947236
52	0x3bd076e3	0.0063618287
53	0x3ca24e2b	0.019812664
54	0xbc4de200	-0.01256609
55	0x3d06a12b	0.032868546
56	0x3c975f5b	0.018478086
57	0xbd1162e8	-0.035494715
58	0x3cc976b7	0.02459274
59	0x3cba618e	0.022751596
60	0x3dd3ff7c	0.10351464
61	0x3dd4ff5b	0.10400268
62	0x3c3a3564	0.011365268
63	0xbcbb0f66	-0.022834491
64	0xbd1df4f4	-0.038563684
65	0x3cfa18e5	0.030529449
66	0x3b5bba80	0.003352791
67	0x3d8b1214	0.067905575
68	0x3c2aa597	0.010415456
69	0xbdb64a84	-0.089009315
70	0xbd882d7b	-0.066493
71	0x3d6de74b	0.058081906
72	0x3d570019	0.052490328
73	0x3d9f6aed	0.07784066
74	0x3c9e22a1	0.019303622
75	0x3d836c9c	0.064172
76	0x3cce224d	0.02516284
77	0x3d11fcae	0.035641365
78	0x3d348b68	0.04407826
79	0xbaf5993e	-0.0018737686
80	0x3c90b294	0.017663278
81	0xbce94f46	-0.028480183
82	0x3cb9f42d	0.02269944
83	0xbc96d675	-0.018412808
84	0x3cb192ad	0.021676386
85	0xbce54d6d	-0.027991021
86	0x3ce0a11b	0.027420571
87	0xbb57f113	-0.0032950088
88	0xbd92b36f	-0.071631305
89	0xbd6b9e91	-0.057524268
90	0xbd44de7a	-0.048063733
91	0xbcbbd0b1	-0.02292666
92	0xbd2e1aa3	-0.04250587
93	0xbcdd73f5	-0.027032832
94	0x3c645ff8	0.013938896
95	0xbcadfdba	-0.02123915
96	0xbc89e440	-0.01683247
97	0xbce63c29	-0.028104858
98	0x3c672517	0.014107964
99	0x3c076037	0.0082626855
100	0x3db710b0	0.0893873
101	0x3ddb9db4	0.10723439
102	0x3d92a930	0.07161176
103	0x3db7c05c	0.089722365
104	0x3c2fcf0a	0.010730514
105	0xbd8900d0	-0.06689608
106	0xbd6de82b	-0.05808274
107	0xbd696920	-0.05698502
108	0xbd1e47c5	-0.038642664
109	0x3cc5e737	0.024158103
110	0xbcdef1dd	-0.027214939
111	0xbc2996d7	-0.010350904
112	0xbcba4cfb	-0.022741785
113	0xbcb506bf	-0.022097943
114	0x3ccd1ad4	0.025037207
115	0xbd5f69c6	-0.054544233
116	0xbdb0d80a	-0.08634956
117	0xbdcb6059	-0.09930486
118	0xbc8795ca	-0.016550917
119	0xbd1ccf7b	-0.038283806
120	0x3c753bbd	0.014967856
121	0xbc387f7e	-0.011260865
122	0xbc83d982	-0.016094927
123	0xbd052b24	-0.032511845
124	0x3b268548	0.0025409032
125	0x3cf2fdef	0.0296621
126	0x3b82ec43	0.0039954497
127	0x3d36e662	0.044653304
128	0x3d2aaa11	0.041666094
129	0x3db95016	0.09048478
130	0x3e0243fe	0.1272125
131	0x3dad7460	0.084694624
132	0x3d765c75	0.060146768
133	0xbd009953	-0.03139622
134	0x3d9bdd31	0.07610548
135	0xbcbaed0a	-0.022818107
136	0xbdbb6305	-0.09149746
137	0xbd539b1c	-0.051661596
138	0x3d15fc28	0.036617428
139	0x3db7415f	0.089480154
140	0x3b3f4f85	0.0029191684
141	0xbcc96861	-0.024585905
142	0xbc8ea4d5	-0.017412582
143	0xbd89d1a2	-0.067294374
144	0xbcac4f82	-0.021034006
145	0x3ba79bb5	0.0051149973
146	0x3bf3c36c	0.0074390676
147	0x3c55301b	0.0130119575
148	0x3d7e1f98	0.06204185
149	0x3d6f2965	0.058389086
150	0x3d8ea5be	0.069652066
151	0xbc0ea0c4	-0.008705322
152	0xbd215d2b	-0.039395493
153	0xbbba6c1d	-0.0056891576
154	0xbc44772e	-0.011991305
155	0xbc149eac	-0.009071033
156	0xbd5102e5	-0.05102815
157	0x3d1cc812	0.03827674
158	0x3db69abd	0.08916233
159	0x3d382271	0.04495472
160	0x3c87c86c	0.01657506
161	0x3c56604b	0.0130844815
162	0xbd60fdb3	-0.054929446
163	0xbd2ed570	-0.04268402
164	0xbd58b9c0	-0.05291152
165	0xbd421f17	-0.04739293
166	0xbc2f4fab	-0.010700147
167	0xbd08f206	-0.033433937
168	0xbcfc11b5	-0.030770162
169	0xbc838784	-0.01605583
170	0x3d790adb	0.06080137
171	0x3c7018f4	0.014654387
172	0x3bda4f46	0.006662282
173	0x3d015b51	0.031581227
174	0x3d48d849	0.04903439
175	0x3cccd406	0.025003444
176	0x3dcd0e20	0.1001246
177	0x3d5d0c1e	0.053966634
178	0x3db78716	0.089613125
179	0x3d3e138e	0.046405368
180	0x3d478d39	0.048718665
181	0xbd024e32	-0.031812854
182	0xbd5d90fb	-0.054093342
183	0xbdc8387a	-0.09776397
184	0xbd7b7d80	-0.061398983
185	0xbd384a57	-0.04499277
186	0x3cb1630b	0.021653673
187	0x3df89639	0.12138028
188	0x3c331af6	0.010931721
189	0x3d877bfc	0.06615445
190	0x3cd0cf2d	0.025489414
191	0xbde00115	-0.109377064
192	0xbc82cd90	-0.01596716
193	0xbd20ac90	-0.03922707
194	0xbd3579ab	-0.044305485
195	0xbdb6082e	-0.08888279
196	0xbcb0337b	-0.021508923
197	0xbc228c31	-0.00992112
198	0x3bcfe3c7	0.006344292
199	0x3d39df11	0.04537875
200	0x3d3d74b4	0.046253875
201	0x3cd3ceac	0.025855385
202	0x3cd7cbf5	0.026342371
203	0x3d635a61	0.055506114
204	0x3d72d9a5	0.059289593
205	0x3e004b7b	0.12528794
206	0x3dd4b647	0.10386329
207	0x3d61667a	0.05502937
208	0x3da15339	0.078772016
209	0xbae5ddac	-0.0017537377
210	0xbd97e011	-0.07415784
211	0xbde468b7	-0.11152785
212	0xbcb89adc	-0.02253478
213	0x3d170b75	0.03687616
214	0x3df3f247	0.11911445
215	0x3de024b1	0.10944498
216	0x3d6a6410	0.057224333
217	0x3c95944d	0.018259192
218	0x3c996484	0.018724687
219	0xbd51f967	-0.05126324
220	0xbd901b2d	-0.07036433
221	0xbde78fbb	-0.11306711
222	0xbd7e1dd0	-0.06204015
223	0xbc913167	-0.017723752
224	0x3e0e8b77	0.13920389
225	0xbc4b6b1c	-0.012415674
226	0x3c94fd4b	0.018187186
227	0xbd43187f	-0.047630783
228	0x3c1ca3b7	0.009560517
229	0xbcca857b	-0.024721852
230	0xbdabf8f9	-0.08397097
231	0x3c9377e6	0.018001508
232	0x3d20f360	0.0392946
233	0x3cc3c8c8	0.02389945
234	0x3da012b4	0.07816067
235	0x3e04bcc9	0.12962641
236	0x3dff5fd3	0.12469449
237	0x3dc3a5f2	0.09553136
238	0x3c8dd28f	0.017312316
239	0xbd880a2d	-0.06642566
240	0xbd2826d4	-0.041052654
241	0x3d813b35	0.06310121
242	0x3dcd1952	0.10014595
243	0x3d73689b	0.05942593
244	0x3d6faf74	0.058516935
245	0xbc4ca8ad	-0.012491387
246	0xbcf417dc	-0.029796533
247	0xbd1d2918	-0.03836927
248	0xbd069fdc	-0.032867298
249	0xbdef304f	-0.11679136
250	0xbdb04675	-0.086071886
251	0x3d475f15	0.04867466
252	0x3d3ad614	0.045614317
253	0xbc40d35a	-0.01176914
254	0xbccc8ffe	-0.024971005
255	0xbd58b8cc	-0.05291061

net.1.bias f4 [256]
0	0xbca35c1c	-0.019941382
1	0x3c5de09e	0.013542322
2	0x3ccd8b68	0.025090888
3	0x3cc4ef6a	0.024039943
4	0xbcc7c08d	-0.024383808
5	0xbcb6bfef	-0.022308318
6	0xbd0a21a7	-0.0337235
7	0x3bfa50d6	0.007639031
8	0x3bb255b6	0.0054423464
9	0x3c3170a6	0.01083008
10	0xbc5c24ce	-0.013436509
11	0xba490c54	-0.00076693785
12	0xbc231d5e	-0.009955732
13	0xbc8cf023	-0.01720435
14	0xbcc69fda	-0.024246145
15	0xbca9f9a3	-0.020748919
16	0xbd0c2c52	-0.034221955
17	0xbc4bdb7e	-0.012442468
18	0xbbc1fae1	-0.0059197997
19	0x3b35ffd4	0.0027770894
20	0xbb678d1c	-0.003533191
21	0x3d0e9755	0.03481229
22	0xbce283af	-0.027650682
23	0x3cbc3797	0.022975726
24	0x3cf28f5c	0.029609375
25	0xbcee0a44	-0.02905763
26	0x3c244be1	0.010027857
27	0x3c2292dd	0.00992271
28	0x3c548920	0.012972146
29	0xbc9de9c3	-0.019276505
30	0x3d03a0be	0.032135718
31	0xbc83ed65	-0.01610441
32	0x3d14a004	0.036285415
33	0x3cfc36f6	0.030787926
34	0x3ca16cee	0.019705262
35	0xbd054581	-0.032536987
36	0x3c8c16a9	0.017100649
37	0x3d13aa57	0.03605112
38	0xbb3626c6	-0.0027794107
39	0xbd0120c5	-0.031525392
40	0xbd0b72d1	-0.034045044
41	0x3bada162	0.0052987793
42	0x3c8dd92a	0.017315466
43	0xbaace3d2	-0.0013190454
44	0x3c501940	0.012701333
45	0xbc332395	-0.010933776
46	0x3c3fb7ba	0.011701519
47	0x3d0ef920	0.034905553
48	0xbad9a949	-0.0016606237
49	0x3c880008	0.016601577
50	0x3bec2131	0.007206105
51	0x3c983a6c	0.018582545
52	0x3cbb362b	0.022852978
53	0xba14d1f7	-0.0005677039
54	0xbca5a3d4	-0.02021972
55	0x3cbe85e7	0.023257209
56	0x3bc0541f	0.005869403
57	0x3cb882d8	0.022523329
58	0x3d089a6d	0.033350397
59	0xbd0f39b6	-0.034967147
60	0xbbfeb083	-0.0077725067
61	0x3c55098b	0.0130027635
62	0xbc3705f8	-0.011170857
63	0x3ab4258d	0.0013744101
64	0x3d0d03f0	0.034427583
65	0xbc91e620	-0.017809927
66	0x3d0026ee	0.031287126
67	0xbba953dc	-0.0051674675
68	0xbcc9b0a3	-0.02462036
69	0x3c996eb6	0.018729549
70	0xbd0ce6c2	-0.034399755
71	0xbcadec35	-0.021230796
72	0x3d156808	0.036476165
73	0xbc366629	-0.011132755
74	0x3c47fa3a	0.012205655
75	0x3c7d3fcf	0.015457108
76	0xbcc6cae9	-0.024266677
77	0x3ba729fa	0.0051014395
78	0xbcf84979	-0.030308472
79	0xbd02db89	-0.031947646
80	0x3c83fb0c	0.01611092
81	0x3ce612f6	0.028085213
82	0xbc506614	-0.01271965
83	0x3c95574b	0.018230101
84	0xbc8ed387	-0.017434848
85	0xbcfdc1be	-0.030976173
86	0x3c8c9152	0.017159138
87	0xbd00b7b3	-0.03142519
88	0x3ca7bba0	0.020475209
89	0x3ce226b9	0.027606355
90	0x3cfd675f	0.03093308
91	0xbc001a44	-0.007818762
92	0xbc878183	-0.016541248
93	0xbcc50f7f	-0.02405524
94	0x3c74ad1e	0.0149338525
95	0x3d13c3fb	0.036075573
96	0x3b16ac54	0.00229909
97	0xbca1b5fd	-0.0197401
98	0xbca6a079	-0.020340191
99	0x3c8bb81e	0.017055567
100	0xbd005ee5	-0.0313405
101	0xbcc6b0e4	-0.02425427
102	0x3befb054	0.007314721
103	0x3c967e9a	0.018370915
104	0xbbebee15	-0.0072000124
105	0xbc58edf8	-0.01324033
106	0xbd0a867d	-0.033819664
107	0x3bd05d24	0.0063587595
108	0xbcc45d0c	-0.02397015
109	0xbc8e4784	-0.017368086
110	0x3b93f565	0.0045153373
111	0x3d162166	0.036652945
112	0xbcbd2d79	-0.023092972
113	0x3c0d95ba	0.008641655
114	0x3c4adff1	0.012382493
115	0xbce3fd29	-0.027830677
116	0x3c9d2550	0.019182831
117	0x3d09f067	0.03367653
118	0x3c975d47	0.018477095
119	0x3b9fc916	0.0048762662
120	0xbc8dc782	-0.017307047
121	0x3cfd69e9	0.030934291
122	0xbb61ca88	-0.0034452993
123	0x3c40ac5d	0.011759845
124	0xbca4a058	-0.02009599
125	0xbc71b0bd	-0.01475161
126	0xbd01895e	-0.031625144
127	0xbba2c500	-0.004967332
128	0xbc9574d4	-0.018244185
129	0xbc1a86c0	-0.009431541
130	0xbc4c55e3	-0.012471649
131	0xbc2d990e	-0.010595573
132	0x39c94de9	0.00038395755
133	0x3c029a3d	0.007971344
134	0x3aebda96	0.0017994221
135	0x3bc2d975	0.005946333
136	0xbcdfb9e7	-0.027310325
137	0x3c67ddfc	0.014152046
138	0xbca23192	-0.019799028
139	0xbc024c11	-0.007952706
140	0x3d0b1438	0.03395483
141	0xbd009464	-0.031391516
142	0xbc4b0f8d	-0.012393844
143	0xbc914671	-0.017733784
144	0x3cb71ed0	0.02235356
145	0x3c86985e	0.016430076
146	0x3bbf45c0	0.0058371723
147	0x3c71bce3	0.014754507
148	0x3c7278bd	0.014799294
149	0x3cb56067	0.022140695
150	0x3c59b80e	0.013288511
151	0x3c8629ce	0.016377356
152	0xbc25b801	-0.010114671
153	0x3cfbbc49	0.03072943
154	0x3cbddee1	0.023177566
155	0xbd05abd5	-0.032634575
156	0xbcff6997	-0.031178279
157	0xbc667740	-0.014066517
158	0x3cc126b0	0.023578018
159	0xbac9b841	-0.0015389995
160	0x3c02fa17	0.007994196
161	0xbbaeafe3	-0.005331026
162	0xbceeb85f	-0.02914065
163	0xbcceb1bf	-0.02523124
164	0x3c760fee	0.015018446
165	0xbd109b21	-0.035304192
166	0xb9350798	-0.00017264334
167	0x3cff3e6f	0.0311577
168	0x3ca0f9a1	0.019650282
169	0xb98ad08c	-0.0002647679
170	0x3cd6d499	0.026224421
171	0xbd05f3a1	-0.032703046
172	0xbb8b2bba	-0.004247156
173	0x3c3984a0	0.011323124
174	0xbb567505	-0.0032723558
175	0xbd132e88	-0.035933048
176	0xba903484	-0.0011001979
177	0xbc9a5605	-0.018839845
178	0x3c91c9b2	0.017796371
179	0x3cc1a16b	0.02363654
180	0xbcfebd62	-0.031096164
181	0xbc53e742	-0.012933554
182	0xbc3d0e30	-0.011539027
183	0x3d0807b7	0.033210482
184	0x3cc48854	0.023990788
185	0xbc1d28b5	-0.009592225
186	0xbc6a7352	-0.014309721
187	0xbc360fd3	-0.011112171
188	0x3c27c0ef	0.01023887
189	0x3c40df68	0.011772014
190	0xbc4e72a1	-0.012600572
191	0xba808283	-0.000980452
192	0x3cf14448	0.029451504
193	0x3b87a1f3	0.004139179
194	0x3cb9ab28	0.022664621
195	0xbcdf1683	-0.027232414
196	0xbc5eadc5	-0.013591235
197	0x3d0221f3	0.031770658
198	0x3b351c06	0.0027635111
199	0xbc46f8d6	-0.012144288
200	0xbd11de74	-0.03561254
201	0x3d0949c3	0.03351761
202	0x3cfcec41	0.030874373
203	0x3ceb7af7	0.028745158
204	0xbc94b214	-0.01815132
205	0xbc5f6a91	-0.013636247
206	0x3ca8e6d5	0.020617882
207	0x3c9c8e6f	0.019110886
208	0xbb6eab25	-0.0036417928
209	0x3d02acd9	0.03190312
210	0xbc4f84ae	-0.012665911
211	0x3d1098fc	0.035302147
212	0x3ba71622	0.005099074
213	0x3bbcb7fe	0.0057592383
214	0xbc5aed09	-0.013362178
215	0x3c9637ed	0.018337214
216	0xba31e800	-0.0006786585
217	0xbcdbf5d9	-0.026850628
218	0x3cbc8315	0.023011724
219	0x3ca1ffe3	0.019775337
220	0x3cb44db7	0.022009714
221	0x3c07048f	0.008240833
222	0xbc0caa86	-0.008585578
223	0xbb5f8d5e	-0.003411136
224	0x3c9e0396	0.01928882
225	0xbcd71c61	-0.02625865
226	0xbcb41b9a	-0.021985818
227	0xbc0dec5d	-0.00866231
228	0x3a924370	0.0011159014
229	0x3b7e6696	0.003881847
230	0x3ca49d11	0.020094426
231	0xbd015bfb	-0.03158186
232	0x3cfda8ff	0.030964373
233	0xbccf4d56	-0.025305431
234	0xbc18fef0	-0.009338126
235	0xbcd0d31b	-0.025491288
236	0x3ccfc0ae	0.025360432
237	0x3bd176ac	0.0063923206
238	0x3d0a4885	0.033760566
239	0xbc47ec94	-0.012202401
240	0x3ce2962d	0.0276595
241	0xbc903a1b	-0.017605832
242	0x3cf82503	0.030291086
243	0x3cf7dd68	0.030256942
244	0x3c6254e0	0.013814181
245	0x3cf2335f	0.029565511
246	0x3b837c1a	0.004012597
247	0x3b4169c3	0.0029512502
248	0x3c8061cd	0.015671635
249	0xbbf0de4a	-0.0073507177
250	0x3cee027a	0.029053915
251	0xbcc77635	-0.024348358
252	0x3c395fe7	0.011314369
253	0xbca7bae4	-0.020474859
254	0xbc950ddf	-0.01819509
255	0x3d07996d	0.033105303

net.2.weight f4 [256]
0	0x3f7849a9	0.96987396
1	0x3f75f761	0.96080595
2	0x3f6a6901	0.91566473
3	0x3f7b8295	0.9824613
4	0x3f711525	0.9417289
5	0x3f79bf50	0.97557545
6	0x3f6d2bc8	0.9264493
7	0x3f7a0257	0.9765982
8	0x3f621f7a	0.8832928
9	0x3f74d36a	0.9563509
10	0x3f6427dd	0.89123327
11	0x3f8151a3	1.0103039
12	0x3f7a2b00	0.9772186
13	0x3f747142	0.9548532
14	0x3f6b4d35	0.91914684
15	0x3f77307d	0.9655836
16	0x3f699a40	0.9125099
17	0x3f859082	1.0434725
18	0x3f85bf97	1.0449094
19	0x3f62c5ea	0.8858324
20	0x3f75f5ad	0.96077996
21	0x3f7e638b	0.9937064
22	0x3f802ac8	1.0013056
23	0x3f764251	0.9619494
24	0x3f81e157	1.0146893
25	0x3f814672	1.0099623
26	0x3f6c09f5	0.92202693
27	0x3f6ce297	0.9253325
28	0x3f720474	0.94538045
29	0x3f870f34	1.0551515
30	0x3f88e4ca	1.0694821
31	0x3f839a74	1.028151
32	0x3f794f03	0.9738619
33	0x3f81bf28	1.0136461
34	0x3f74bb54	0.9559834
35	0x3f695250	0.91141224
36	0x3f74b1d1	0.95583826
37	0x3f77d2fc	0.9680631
38	0x3f699f53	0.91258734
39	0x3f764873	0.962043
40	0x3f7572aa	0.9587809
41	0x3f7993ae	0.97490966
42	0x3f7c174d	0.98473054
43	0x3f725107	0.9465489
44	0x3f810e4b	1.0082487
45	0x3f80f98d	1.0076157
46	0x3f6db658	0.9285636
47	0x3f7fcab6	0.9991869
48	0x3f6e7daa	0.931605
49	0x3f5e4c00	0.86834717
50	0x3f807b83	1.0037693
51	0x3f80420e	1.0020158
52	0x3f823d84	1.0175023
53	0x3f7d795d	0.9901331
54	0x3f7b0760	0.9805813
55	0x3f80b22d	1.0054375
56	0x3f6f8d88	0.93575335
57	0x3f82a144	1.0205464
58	0x3f7b5291	0.9817286
59	0x3f7f5502	0.99739087
60	0x3f7c5b47	0.9857678
61	0x3f6ba552	0.92049134
62	0x3f6e8db9	0.93185
63	0x3f729c9a	0.94770205
64	0x3f6f971e	0.9358996
65	0x3f6aac03	0.9166872
66	0x3f738744	0.95128274
67	0x3f75b464	0.9597838
68	0x3f7eac1d	0.99481374
69	0x3f7477cb	0.9549529
70	0x3f7c92a6	0.9866127
71	0x3f76c6fe	0.9639739
72	0x3f7ad853	0.97986335
73	0x3f7c40e6	0.9853653
74	0x3f7dbbb3	0.9911453
75	0x3f652cfe	0.8952178
76	0x3f6e471f	0.9307727
77	0x3f7eb045	0.99487716
78	0x3f64f07d	0.89429456
79	0x3f6d78a2	0.92762196
80	0x3f6ff437	0.9373202
81	0x3f63655b	0.8882653
82	0x3f795dea	0.97408926
83	0x3f6ca120	0.9243336
84	0x3f65bf52	0.89745057
85	0x3f76a665	0.9634765
86	0x3f6aaaf2	0.9166709
87	0x3f6efc23	0.9335348
88	0x3f6eba40	0.93252945
89	0x3f7cfdb7	0.9882464
90	0x3f78d109	0.9719396
91	0x3f71524e	0.9426621
92	0x3f728fa0	0.94750404
93	0x3f7c1c34	0.98480535
94	0x3f81bd68	1.0135927
95	0x3f84b5ca	1.0367978
96	0x3f802572	1.0011427
97	0x3f83613f	1.0264052
98	0x3f819f2c	1.01267
99	0x3f841c51	1.0321141
100	0x3f78887b	0.9708325
101	0x3f75e6c2	0.96055233
102	0x3f846398	1.0342894
103	0x3f7a2355	0.9771016
104	0x3f65d527	0.8977837
105	0x3f847d5a	1.0350754
106	0x3f6c5601	0.9231873
107	0x3f750f7f	0.9572677
108	0x3f7f9fbf	0.9985313
109	0x3f7648f1	0.9620505
110	0x3f7d74e4	0.99006486
111	0x3f6afb2e	0.9178952
112	0x3f73a116	0.9516767
113	0x3f7c4b11	0.9855204
114	0x3f7cf6ea	0.9881426
115	0x3f7c9042	0.9865762
116	0x3f7833de	0.96954143
117	0x3f7cc633	0.9873993
118	0x3f67f06d	0.90601236
119	0x3f6a39da	0.91494524
120	0x3f82f9a7	1.0232438
121	0x3f6fb92b	0.9364192
122	0x3f724058	0.9462943
123	0x3f75afee	0.9597157
124	0x3f6bd284	0.92118096
125	0x3f80a5dd	1.0050617
126	0x3f789694	0.97104764
127	0x3f81a9b8	1.0129919
128	0x3f7ab6e6	0.9793533
129	0x3f6bbf18	0.9208846
130	0x3f689846	0.9085735
131	0x3f81d8a3	1.0144237
132	0x3f792928	0.97328424
133	0x3f78f6f6	0.9725183
134	0x3f85528e	1.0415819
135	0x3f77b583	0.9676134
136	0x3f77a9b9	0.9674335
137	0x3f74315b	0.9538781
138	0x3f80ab03	1.0052189
139	0x3f74dde4	0.9565108
140	0x3f778cda	0.966993
141	0x3f66dfda	0.9018532
142	0x3f7a787b	0.9784009
143	0x3f788461	0.97076994
144	0x3f80e98e	1.0071275
145	0x3f6ff67e	0.9373549
146	0x3f7dcb96	0.9913877
147	0x3f723911	0.94618326
148	0x3f81de9c	1.014606
149	0x3f80b90b	1.0056471
150	0x3f7f9521	0.9983693
151	0x3f738373	0.9512245
152	0x3f80c23c	1.0059276
153	0x3f757fd0	0.9589815
154	0x3f810b60	1.0081596
155	0x3f7154e6	0.9427017
156	0x3f79f9fb	0.97647065
157	0x3f8069b2	1.0032256
158	0x3f7e670f	0.99376005
159	0x3f6fbb90	0.9364557
160	0x3f7e9cd4	0.9945805
161	0x3f7b35a7	0.9812874
162	0x3f7a8f4e	0.97874916
163	0x3f8665eb	1.0499853
164	0x3f7e2706	0.99278295
165	0x3f824ecb	1.0180296
166	0x3f6d9d90	0.92818546
167	0x3f7f030a	0.9961401
168	0x3f798f17	0.9748396
169	0x3f71f11e	0.9450854
170	0x3f66a06c	0.90088534
171	0x3f731684	0.9495623
172	0x3f6dae3e	0.92844
173	0x3f71c21b	0.94436806
174	0x3f801aae	1.0008142
175	0x3f7c60cb	0.98585194
176	0x3f80101e	1.0004919
177	0x3f750b06	0.95719945
178	0x3f8032e8	1.0015535
179	0x3f8b0182	1.0859835
180	0x3f6abcb4	0.9169419
181	0x3f81e0a3	1.0146679
182	0x3f6d72d5	0.92753345
183	0x3f734fe1	0.9504376
184	0x3f7566d3	0.9586002
185	0x3f7c91b6	0.9865984
186	0x3f76aad0	0.9635439
187	0x3f6b39be	0.9188498
188	0x3f7bf8fd	0.984268
189	0x3f85642d	1.0421196
190	0x3f7dc9c8	0.9913602
191	0x3f84b5af	1.0367945
192	0x3f737501	0.9510041
193	0x3f81a46a	1.01283
194	0x3f82c3f1	1.0216047
195	0x3f722d51	0.946004
196	0x3f7e55a8	0.9934945
197	0x3f7cf10a	0.98805296
198	0x3f692df0	0.9108572
199	0x3f69b5be	0.9129294
200	0x3f759568	0.959311
201	0x3f763976	0.9618143
202	0x3f7219f7	0.9457087
203	0x3f81d582	1.0143282
204	0x3f7bf680	0.98423004
205	0x3f7fc7ce	0.9991425
206	0x3f6d854b	0.92781514
207	0x3f701310	0.9377909
208	0x3f747b52	0.9550067
209	0x3f69eaa2	0.91373646
210	0x3f701920	0.9378834
211	0x3f69feff	0.9140472
212	0x3f780d00	0.96894836
213	0x3f8c04c2	1.0938952
214	0x3f7dccba	0.9914051
215	0x3f72fd7f	0.94918054
216	0x3f829727	1.0202378
217	0x3f71933a	0.94365275
218	0x3f69c554	0.91316724
219	0x3f5f5413	0.8723766
220	0x3f71638b	0.94292516
221	0x3f797f87	0.97460216
222	0x3f7bf111	0.98414713
223	0x3f7aa344	0.97905374
224	0x3f74bfb9	0.95605046
225	0x3f850bd4	1.0394235
226	0x3f80913b	1.0044321
227	0x3f832b67	1.024762
228	0x3f744f78	0.9543376
229	0x3f82880a	1.0197766
230	0x3f795673	0.97397536
231	0x3f65e15f	0.89797014
232	0x3f69e8ac	0.91370654
233	0x3f7297d5	0.9476293
234	0x3f8359a5	1.0261732
235	0x3f7391a5	0.9514411
236	0x3f7cf314	0.9880841
237	0x3f85ff1f	1.0468482
238	0x3f8235e7	1.01727
239	0x3f6d3e87	0.92673534
240	0x3f6c25d3	0.92245215
241	0x3f8768a3	1.0578808
242	0x3f74da4b	0.9564559
243	0x3f770afc	0.96501136
244	0x3f766145	0.9624217
245	0x3f793b27	0.97355884
246	0x3f75d8e7	0.9603409
247	0x3f7b6acf	0.9820985
248	0x3f7708be	0.96497715
249	0x3f7f2125	0.9965995
250	0x3f77f55f	0.9685878
251	0x3f778a97	0.96695846
252	0x3f69825b	0.9121453
253	0x3f6bca6f	0.92105764
254	0x3f72f2a0	0.94901466
255	0x3f76d347	0.96416134

net.2.bias f4 [256]
0	0xbe68112d	-0.22662802
1	0xbeae6be1	-0.3406668
2	0xbe64c97b	-0.22342484
3	0xbec82477	-0.3909032
4	0xbe84929a	-0.25893098
5	0xbe799c32	-0.2437599
6	0xbe8f161c	-0.27946556
7	0xbeabb677	-0.33537647
8	0xbe916fc3	-0.2840558
9	0xbe69f888	-0.22848713
10	0xbe77fd80	-0.24217796
11	0xbe974b69	-0.2954972
12	0xbe586a77	-0.21134363
13	0xbeb8bab8	-0.36079955
14	0xbe462050	-0.19348264
15	0xbe9d9a11	-0.30781606
16	0xbe7f7c6b	-0.24949805
17	0xbeaa3cee	-0.3324961
18	0xbe95f7db	-0.2929066
19	0xbe882102	-0.26587683
20	0xbe71205f	-0.23547505
21	0xbe41c8bb	-0.18924229
22	0xbe1f7f05	-0.15575798
23	0xbe259af9	-0.16172399
24	0xbe5763bd	-0.21034141
25	0xbe84f6d7	-0.25969574
26	0xbea8589b	-0.328801
27	0xbe8574aa	-0.2606557
28	0xbe88f87d	-0.26752082
29	0xbe99436e	-0.29934257
30	0xbe649c8f	-0.22325347
31	0xbe321ae6	-0.17393073
32	0xbe996a83	-0.29964074
33	0xbec56b36	-0.38558358
34	0xbdc5e5bf	-0.09662961
35	0xbe5cdc74	-0.21568471
36	0xbe7ee648	-0.24892533
37	0xbe63594c	-0.22202033
38	0xbe594601	-0.2121811
39	0xbe93b8a6	-0.28851813
40	0xbea3135a	-0.31850702
41	0xbe723cc0	-0.23655987
42	0xbe9c4341	-0.3052006
43	0xbe75a641	-0.23989202
44	0xbea59f7e	-0.32348245
45	0xbe7c91ed	-0.24665041
46	0xbe8f59fa	-0.27998334
47	0xbe8f8dc8	-0.28037858
48	0xbe90b89b	-0.28265843
49	0xbeb2407f	-0.34814832
50	0xbe634e9b	-0.22197954
51	0xbe65be5f	-0.22435902
52	0xbe8f0fec	-0.27941835
53	0xbe3eb37b	-0.18623154
54	0xbdb5b3f3	-0.08872213
55	0xbea0e2a2	-0.31422907
56	0xbe82d239	-0.25551012
57	0xbe9e2a8f	-0.30891845
58	0xbe39ac0b	-0.18132035
59	0xbe54e34a	-0.20789829
60	0xbe51cbf8	-0.20487964
61	0xbe249794	-0.16073447
62	0xbe895743	-0.26824388
63	0xbe5531ac	-0.2081973
64	0xbe80fb26	-0.2519161
65	0xbe83c191	-0.25733617
66	0xbe8327aa	-0.256162
67	0xbe8a9107	-0.27063772
68	0xbe640d09	-0.22270598
69	0xbe80cbf4	-0.25155604
70	0xbe87bf4a	-0.2651313
71	0xbe26effe	-0.16302487
72	0xbe69d5ef	-0.22835515
73	0xbe8e2b91	-0.27767614
74	0xbea1900a	-0.31555206
75	0xbe83db35	-0.2575318
76	0xbe9328f1	-0.28742173
77	0xbe8ab645	-0.27092186
78	0xbe78daab	-0.24302165
79	0xbe9e5da4	-0.30930817
80	0xbe669152	-0.22516373
81	0xbe17b703	-0.14815907
82	0xbe8371ab	-0.2567266
83	0xbe0dad7c	-0.1383571
84	0xbe3f4670	-0.18679214
85	0xbe4cc413	-0.19996671
86	0xbe5583c2	-0.20851043
87	0xbe23022b	-0.15918796
88	0xbe89a369	-0.26882485
89	0xbe95b2c9	-0.29237965
90	0xbe51cfd3	-0.20489435
91	0xbe45f2a2	-0.19330838
92	0xbe33ac23	-0.17546134
93	0xbe52a813	-0.20571928
94	0xbe39bfe0	-0.18139601
95	0xbea32132	-0.31861264
96	0xbe68e999	-0.2274536
97	0xbe9315d4	-0.2872759
98	0xbe9afd3a	-0.30271322
99	0xbe74727b	-0.23871796
100	0xbe413783	-0.18868832
101	0xbe48ace4	-0.19597203
102	0xbeaa80bf	-0.3330135
103	0xbe97810d	-0.29590645
104	0xbe434860	-0.19070578
105	0xbe40fc0b	-0.18846147
106	0xbe476870	-0.19473433
107	0xbe4c6625	-0.1996084
108	0xbea1a1c1	-0.3156872
109	0xbe283dd7	-0.1642984
110	0xbe2d6425	-0.16932733
111	0xbe353637	-0.17696463
112	0xbe5e4b4d	-0.21708412
113	0xbe47a7c7	-0.19497596
114	0xbe882268	-0.2658875
115	0xbe9e7216	-0.30946416
116	0xbe5403f1	-0.20704629
117	0xbe8e085a	-0.27740747
118	0xbe5d294b	-0.21597783
119	0xbe98cf8c	-0.29845846
120	0xbea9a259	-0.33131674
121	0xbe9388a5	-0.2881519
122	0xbe7103fd	-0.23536678
123	0xbe9495bf	-0.29020497
124	0xbe8e46c8	-0.27788377
125	0xbe2f9e39	-0.17150201
126	0xbe06c1be	-0.13159844
127	0xbe8cc297	-0.2749221
128	0xbe790b37	-0.24320684
129	0xbe8a3ac1	-0.2699795
130	0xbe9c258c	-0.30497396
131	0xbe615159	-0.22003688
132	0xbe8b3170	-0.27186155
133	0xbe530b6b	-0.20609824
134	0xbe9b9373	-0.30385932
135	0xbe8ce8c4	-0.27521336
136	0xbe342028	-0.17590392
137	0xbe941394	-0.28921187
138	0xbea48b80	-0.3213768
139	0xbe8a8cab	-0.27060446
140	0xbe5740bb	-0.21020786
141	0xbe5cfe86	-0.21581468
142	0xbe92362d	-0.28556958
143	0xbea30cfe	-0.3184585
144	0xbe8ff6c8	-0.28117967
145	0xbe839283	-0.25697717
146	0xbe1974cb	-0.14985959
147	0xbebc1faa	-0.36742908
148	0xbe138d55	-0.14409383
149	0xbe5f8d33	-0.21831207
150	0xbe7e1a6b	-0.24814765
151	0xbe4c0361	-0.19923164
152	0xbe6c0d96	-0.23052058
153	0xbe562668	-0.20913088
154	0xbe521a9b	-0.20517962
155	0xbe4b252e	-0.19838402
156	0xbe685e8f	-0.22692321
157	0xbe978f4b	-0.2960151
158	0xbe64a0f5	-0.22327025
159	0xbeaa5cc5	-0.33273903
160	0xbe8f9ca9	-0.2804921
161	0xbe7e4222	-0.24829915
162	0xbe680bcd	-0.22660752
163	0xbe985a46	-0.29756373
164	0xbea72492	-0.32645088
165	0xbe905c17	-0.2819526
166	0xbeaa37d7	-0.33245727
167	0xbe8249fe	-0.25447077
168	0xbe44bcf9	-0.19212712
169	0xbe7a5664	-0.24447018
170	0xbe2e8671	-0.17043473
171	0xbe29d90b	-0.16586702
172	0xbe020151	-0.12695815
173	0xbe0710f8	-0.13190067
174	0xbe5c05f5	-0.21486647
175	0xbe8262f0	-0.25466108
176	0xbe9d224f	-0.30690238
177	0xbe848647	-0.25883695
178	0xbe934a3c	-0.28767574
179	0xbe118698	-0.142115
180	0xbeb4f848	-0.35345674
181	0xbe7156c1	-0.2356825
182	0xbe709f2d	-0.2349822
183	0xbe37b0ac	-0.17938489
184	0xbe89461f	-0.2681131
185	0xbe61a936	-0.22037205
186	0xbe70f0d4	-0.23529369
187	0xbe946467	-0.2898285
188	0xbe4d47e8	-0.20046961
189	0xbea9fdcd	-0.33201447
190	0xbea73457	-0.3265712
191	0xbe812123	-0.25220594
192	0xbe9a1eb1	-0.3010154
193	0xbe8a92d0	-0.27065134
194	0xbe66fe5b	-0.22557966
195	0xbe6aac1b	-0.22917216
196	0xbe73fdad	-0.23827238
197	0xbe9070d8	-0.28211093
198	0xbe8c1c2a	-0.27365237
199	0xbe5c3152	-0.21503189
200	0xbe8014d7	-0.250159
201	0xbe5d0932	-0.21585539
202	0xbe9dd372	-0.30825382
203	0xbe27714f	-0.16351818
204	0xbe7c09f4	-0.24613172
205	0xbe7591f9	-0.23981465
206	0xbe27aa4b	-0.16373555
207	0xbe55b016	-0.20867953
208	0xbe36bb3b	-0.1784486
209	0xbe20322a	-0.15644136
210	0xbe9a0a43	-0.30085954
211	0xbe60e634	-0.21962816
212	0xbe40d333	-0.18830566
213	0xbec2f794	-0.38079512
214	0xbe6fb51b	-0.2340893
215	0xbeacb514	-0.33731902
216	0xbe818a25	-0.25300708
217	0xbe5f80f7	-0.2182654
218	0xbe92a924	-0.2864467
219	0xbe85c20b	-0.26124606
220	0xbe6108fb	-0.21976082
221	0xbe7a6871	-0.24453904
222	0xbe819077	-0.2530553
223	0xbe4b8c41	-0.19877721
224	0xbe19aad1	-0.15006568
225	0xbe8e6625	-0.27812305
226	0xbe5f61ce	-0.21814653
227	0xbe66755e	-0.2250571
228	0xbe28de24	-0.1649099
229	0xbe5046b9	-0.20339479
230	0xbe9e8da5	-0.3096744
231	0xbe8987cc	-0.26861417
232	0xbe3d9fc4	-0.18517977
233	0xbe7eadd0	-0.24870992
234	0xbeb958de	-0.36200613
235	0xbddeff01	-0.10888482
236	0xbe91a015	-0.28442445
237	0xbe9a9fd3	-0.3020006
238	0xbea8892d	-0.32917157
239	0xbe38370f	-0.17989753
240	0xbe5b2014	-0.21398956
241	0xbe4d6481	-0.2005787
242	0xbe9daaee	-0.30794472
243	0xbe95c2ce	-0.29250187
244	0xbe62c4e6	-0.22145423
245	0xbe4d782c	-0.20065373
246	0xbe80a09e	-0.2512254
247	0xbe4fd46f	-0.2029588
248	0xbe3814d3	-0.17976694
249	0xbe205e74	-0.15661031
250	0xbe925d26	-0.28586692
251	0xbe9e1a96	-0.30879658
252	0xbe943898	-0.28949428
253	0xbe698b9a	-0.2280716
254	0xbead9b50	-0.33907557
255	0xbe6e69a4	-0.23282486

net.2.running_mean f4 [256]
0	0x3d920586	0.0712996
1	0xbfc61783	-1.5475925
2	0x40102777	2.2524087
3	0xbf9b9439	-1.2154609
4	0x3ee01c39	0.43771532
5	0xbfc185ab	-1.5118917
6	0xbf054432	-0.5205718
7	0xc04885b4	-3.1331606
8	0xbe1b1bde	-0.15147349
9	0x3d6e4fcb	0.058181565
10	0xbfb3d279	-1.4048606
11	0xbf3d5d58	-0.73970556
12	0xbf35d059	-0.7102104
13	0xc045e988	-3.0923786
14	0x3de35aef	0.111013286
15	0x3df63dfd	0.12023542
16	0x3f2749a7	0.6534676
17	0x3def539c	0.11685869
18	0xc00428da	-2.0649934
19	0x402f0d3d	2.735183
20	0xc02a0f19	-2.6571715
21	0x3faef120	1.3667336
22	0xbedbbc67	-0.42917177
23	0x3f0e6ff5	0.5563958
24	0xbf88ed59	-1.0697433
25	0xc04bfb0c	-3.1871977
26	0xc08d429d	-4.4143815
27	0x3fb2619b	1.3936037
28	0xbf365721	-0.712267
29	0x3fbd368a	1.4782269
30	0x3d64a1fd	0.055818547
31	0xc03c2ab6	-2.9401069
32	0xc081c482	-4.055238
33	0x3f80178e	1.0007188
34	0x3ff15413	1.8853782
35	0x3e75feea	0.24023023
36	0x3f3f5c3a	0.747501
37	0xbf06fb48	-0.52727175
38	0xbfed5391	-1.8541127
39	0xbf632731	-0.88731676
40	0x3f79ceb3	0.9758102
41	0x3f7bee84	0.9841082
42	0xbf9abac4	-1.2088246
43	0x3bf194bc	0.007372467
44	0xbf0c5d41	-0.54829794
45	0xc06ae936	-3.670484
46	0x3f062d10	0.5241251
47	0x3ebaa456	0.36453503
48	0xbf1bf413	-0.609193
49	0xc08d240f	-4.4106517
50	0xbf85eb30	-1.0462399
51	0x3ff9070c	1.9455276
52	0xc0280519	-2.6253111
53	0x3c701acf	0.014654829
54	0xbe8a3284	-0.26991665
55	0xbf97321b	-1.1812166
56	0x3f8d811d	1.1055027
57	0xbed5781b	-0.41693196
58	0x3e54cf51	0.2078221
59	0x3f2bc4ec	0.67097354
60	0xbfaaf3a8	-1.3355608
61	0xbf92e128	-1.1474962
62	0x3f6a1896	0.91443765
63	0x3ec50114	0.38477385
64	0xbfedb22b	-1.8569998
65	0xc01288ba	-2.2895951
66	0xc081c4eb	-4.055288
67	0x40588a23	3.3834312
68	0xbf8e88ac	-1.1135459
69	0x3fd6cc9a	1.678119
70	0xbef4f28c	-0.478413
71	0xbe5b0f5e	-0.21392581
72	0x3f4203c3	0.7578699
73	0x3f86f11f	1.0542334
74	0x3fa14974	1.2600541
75	0x3f999308	1.1997995
76	0x3fc99fb8	1.5751867
77	0x3f8c300a	1.095216
78	0x3f0243c7	0.5088467
79	0xc07ca52c	-3.9475813
80	0xbfa619db	-1.297664
81	0x3ef55f3b	0.47924218
82	0xc0293774	-2.6440096
83	0x3fc875ed	1.5660988
84	0xc0060536	-2.094068
85	0x3f072ce0	0.5280285
86	0x3fbdcf1a	1.4828827
87	0x3f02b181	0.510521
88	0xc01dd9cd	-2.4664185
89	0xc020c6a5	-2.5121243
90	0x3fb959ed	1.4480568
91	0x3f00110c	0.5002601
92	0xbeb5aaa2	-0.35481745
93	0xbf6b06a0	-0.91806984
94	0x3eb305ef	0.34965464
95	0x3fc73e7d	1.5565945
96	0xbffddd65	-1.9833189
97	0xbdf7a76e	-0.120924816
98	0x3d026f9e	0.031844728
99	0x3fde4908	1.7366037
100	0xbf8e72c5	-1.1128775
101	0xbeec7247	-0.46180937
102	0xc0775fb1	-3.8652155
103	0xbfb2e7fe	-1.3977048
104	0xc0396401	-2.8967288
105	0x3f471cfb	0.77778596
106	0x4046b3c0	3.104721
107	0x3f8fc7d9	1.1232864
108	0x3f1960d5	0.5991338
109	0x3f50026b	0.8125369
110	0x3faf0df3	1.3676132
111	0x3e93360d	0.28752175
112	0xbda55822	-0.080734506
113	0x3f9546b7	1.1662205
114	0x3f9827ee	1.1887186
115	0xbf8d3cb0	-1.1034145
116	0x404e461b	3.223029
117	0x3fb2ec20	1.397831
118	0xc011149c	-2.266883
119	0xbf1513ba	-0.58233225
120	0xc05c83a0	-3.4455338
121	0xc03b466b	-2.926173
122	0xbfbfef5c	-1.4994922
123	0xbfd5742f	-1.6676081
124	0xc024fd66	-2.5779662
125	0x3fe4ad17	1.7865323
126	0x3eb97045	0.36218467
127	0xbfd2579b	-1.6432985
128	0xbfed52e8	-1.8540926
129	0x3f89591b	1.0730318
130	0xbf3f0f62	-0.7463285
131	0xbe3f8fbf	-0.18707179
132	0xc0073b21	-2.112984
133	0x3f9a8891	1.2072927
134	0xc061e30f	-3.5294836
135	0xbf0677bc	-0.5252645
136	0x3efeaa2a	0.497392
137	0xc04e033f	-3.2189481
138	0x3e8cdd41	0.27512553
139	0xbee199c3	-0.44062623
140	0xbbc2f739	-0.0059498814
141	0xc0060204	-2.093873
142	0xbf95a672	-1.169142
143	0x3f255540	0.64583206
144	0xbfb22b55	-1.3919474
145	0x3e96e000	0.29467773
146	0xbe93b055	-0.28845468
147	0x3df646e0	0.12025237
148	0xbf916779	-1.1359702
149	0xbfd9e991	-1.7024404
150	0x3fa494ff	1.285797
151	0x3f360a7d	0.71109754
152	0xbf912939	-1.1340705
153	0xbea1c358	-0.31594348
154	0xbed935e7	-0.42423937
155	0x3f56e203	0.83938617
156	0xc0386675	-2.8812535
157	0xbfba4454	-1.4552102
158	0xc00eb279	-2.229643
159	0xbf162aba	-0.58658946
160	0x3f49e24f	0.78860945
161	0x3c9f0afe	0.019414421
162	0xbf572d18	-0.8405318
163	0xbeb515f4	-0.3536831
164	0xbdebe9ee	-0.11519228
165	0xc04634f4	-3.096982
166	0xc0363251	-2.846821
167	0xbf7d98ba	-0.9906117
168	0xbf57cd23	-0.8429739
169	0x4017c3dc	2.3713293
170	0x3f84c8d8	1.0373793
171	0x3fbf1eab	1.4931234
172	0x4060d626	3.5130706
173	0xbd815b0d	-0.06316195
174	0xbf58e192	-0.84719193
175	0xc0786918	-3.8814144
176	0x3f8e481e	1.1115758
177	0xbea1c8af	-0.31598422
178	0xc08c7150	-4.388832
179	0xbdabba73	-0.08385172
180	0xc00a4a06	-2.160768
181	0xbfceac39	-1.6146308
182	0xbfd14c99	-1.6351501
183	0x3f1001d0	0.56252766
184	0x3e2adba5	0.1668535
185	0x3f0cda95	0.5502103
186	0x3fb6a0b8	1.4267797
187	0xbfe28d35	-1.7699343
188	0x3f8f511d	1.1196629
189	0xbfd51bf0	-1.6649151
190	0xbf8680ca	-1.0508053
191	0xbfd159a3	-1.635548
192	0xbf7a8ba2	-0.9786931
193	0xbef90741	-0.48638347
194	0xbf44c805	-0.76867706
195	0xbfb55d7d	-1.4169155
196	0xc080940e	-4.018073
197	0xc009941a	-2.1496644
198	0x402d5838	2.7085094
199	0xc0026a21	-2.0377276
200	0x3f850652	1.0392554
201	0x3ed421d2	0.41432053
202	0xbf924b17	-1.1429166
203	0xbe801317	-0.25014564
204	0xbff578f3	-1.9177536
205	0x3f385276	0.72000825
206	0xbf810f8b	-1.0082868
207	0x4021fb36	2.5309577
208	0x3e83af5f	0.25719735
209	0xbd3d0d05	-0.046154995
210	0x3f49835e	0.78716075
211	0x3f9c36a6	1.2204177
212	0xbf07ad76	-0.52999055
213	0xc04e9476	-3.2278113
214	0xbf1f6506	-0.62263525
215	0xbf3544d7	-0.70808166
216	0xbfcead3f	-1.614662
217	0x3e973cdc	0.2953862
218	0x3f2ab2fe	0.6667937
219	0x3e3ce14b	0.18445317
220	0x3feebc58	1.8651228
221	0xbf83fd26	-1.031163
222	0xbfcf88a2	-1.6213572
223	0x3f1b25ea	0.6060473
224	0xbf885e3e	-1.065376
225	0xbfbf841e	-1.4962194
226	0xbf31924a	-0.69363844
227	0xc000f4dd	-2.0149453
228	0x3e9f92d5	0.3116671
229	0xbf2d8d28	-0.6779351
230	0xc027802d	-2.6171982
231	0xbebce6a8	-0.36894727
232	0xbf34cb3d	-0.70622617
233	0xbe19f955	-0.15036519
234	0xc0564df8	-3.3485088
235	0xbec4051d	-0.3828515
236	0x3e920acf	0.2852387
237	0xbfefe6f3	-1.8742355
238	0xbfceff15	-1.6171595
239	0xbf6187f0	-0.8809805
240	0x3fe7058d	1.8048569
241	0x3f7e75e8	0.9939866
242	0xbf2d8d25	-0.67793494
243	0xbf886ae6	-1.0657623
244	0x3f6299d4	0.88515973
245	0xbf931fcd	-1.149408
246	0xc04b29e4	-3.1744318
247	0xbeedb1c3	-0.46424684
248	0xbf3d2d46	-0.73897207
249	0x3f1bd8a2	0.6087743
250	0x407de548	3.9671192
251	0xbdd4f101	-0.1039753
252	0xc0083dfb	-2.128783
253	0xbc1a954e	-0.009435011
254	0xbf1c602b	-0.6108424
255	0x3ff81632	1.9381773

net.2.running_var f4 [256]
0	0x40b67702	5.7020273
1	0x40e90b4a	7.282628
2	0x410561d6	8.336386
3	0x40d53e19	6.6638303
4	0x4104c951	8.2991495
5	0x40fa1978	7.815609
6	0x41329141	11.160462
7	0x40c75824	6.2295094
8	0x40d52210	6.660408
9	0x40bd8ef8	5.9237022
10	0x410a5ac6	8.6471615
11	0x4139bbe6	11.608374
12	0x415494c8	13.286324
13	0x411b5763	9.708835
14	0x410212ff	8.129638
15	0x41189d02	9.538332
16	0x409a1eee	4.8162756
17	0x40edd6f5	7.43249
18	0x412cdbbe	10.803648
19	0x4105627f	8.336547
20	0x41494a35	12.580617
21	0x4152c71c	13.173611
22	0x40e95fa8	7.292927
23	0x4108efa0	8.558502
24	0x4127cf5a	10.488123
25	0x40e1fd09	7.062138
26	0x40c6f074	6.216852
27	0x40bd34e5	5.912707
28	0x4111d92d	9.115521
29	0x4088681f	4.26271
30	0x40eac1de	7.3361654
31	0x410a86a8	8.657875
32	0x41104b16	9.018332
33	0x40c851e1	6.259995
34	0x40d25c44	6.573763
35	0x41100a56	9.002523
36	0x4109b9aa	8.607828
37	0x4104622a	8.273966
38	0x41111ac9	9.069039
39	0x413e1b78	11.881706
40	0x410d5a4c	8.834545
41	0x4143d792	12.240129
42	0x40a39991	5.112496
43	0x40a0227a	5.0042086
44	0x40875aa6	4.2298155
45	0x40e83d73	7.257501
46	0x40a1739d	5.045363
47	0x40e57d95	7.17158
48	0x4102672f	8.150191
49	0x41319ba4	11.100498
50	0x40e43d8f	7.1325145
51	0x40b7f6bc	5.748869
52	0x410211ad	8.129315
53	0x412b70ad	10.715009
54	0x409dbd1b	4.929334
55	0x40ea528e	7.3225775
56	0x410846c5	8.517278
57	0x40e2d8da	7.088971
58	0x40fe4773	7.946222
59	0x410e67d1	8.900346
60	0x410f161f	8.942901
61	0x40ed39a2	7.4132853
62	0x40bdf3f7	5.936031
63	0x410030d8	8.011925
64	0x40fd37c8	7.913059
65	0x40d563d1	6.6684346
66	0x4117e56b	9.49351
67	0x410b7c5e	8.717863
68	0x40d3035f	6.5941615
69	0x41011ebe	8.070005
70	0x40d50acf	6.6575694
71	0x4117901c	9.472683
72	0x409933a1	4.7875524
73	0x4130bcee	11.046125
74	0x40a6dd5f	5.214523
75	0x41077593	8.466205
76	0x4167fb3e	14.498838
77	0x40f7268e	7.7234564
78	0x40f6612f	7.699363
79	0x410c48de	8.76779
80	0x4091d35c	4.5570507
81	0x40a0702a	5.013692
82	0x4113966e	9.224226
83	0x40b60bf8	5.688961
84	0x40e56b15	7.1693215
85	0x4161a0c0	14.101746
86	0x40bcf857	5.905315
87	0x40c42ae4	6.1302357
88	0x40d2043e	6.563018
89	0x40cc66be	6.387542
90	0x40a1f47d	5.0610948
91	0x40ccc644	6.3992023
92	0x40ac2e05	5.3806176
93	0x40963866	4.6943846
94	0x40b49044	5.6426105
95	0x410a15f3	8.630359
96	0x40e348b7	7.1026263
97	0x4171e22d	15.117719
98	0x40cbda37	6.3703876
99	0x41609442	14.036196
100	0x41254cc8	10.331245
101	0x411bd345	9.739079
102	0x40ce2e15	6.4431252
103	0x40b6d48b	5.713445
104	0x40f4c7db	7.6493964
105	0x4108d244	8.551334
106	0x40c196da	6.0496645
107	0x4127b9e9	10.482888
108	0x411ab25e	9.668547
109	0x40d4d82b	6.6513877
110	0x40e22dfe	7.0681143
111	0x40d2c7ee	6.5869055
112	0x40d90214	6.7815037
113	0x41037a2c	8.217327
114	0x40a9b71f	5.3036036
115	0x40f35dcd	7.6052003
116	0x4093eb41	4.6224675
117	0x4129b051	10.605546
118	0x4168bd12	14.54616
119	0x40a71997	5.2218738
120	0x4107100f	8.441421
121	0x40a91841	5.2842107
122	0x40e4b3a1	7.1469274
123	0x40d5bdd7	6.679424
124	0x40c58c55	6.1733804
125	0x40d89f20	6.7694244
126	0x41016ec4	8.089542
127	0x40ce441c	6.445814
128	0x40bfa446	5.988803
129	0x4115252b	9.321574
130	0x4101964c	8.099194
131	0x40f40da1	7.6266637
132	0x40f77112	7.7325525
133	0x40fda04a	7.9258165
134	0x40c36bbc	6.106901
135	0x40e26d08	7.0758095
136	0x40d33ffe	6.6015615
137	0x410bd1d9	8.738732
138	0x40e7911c	7.2364635
139	0x40e7010d	7.2188783
140	0x4125fb5f	10.37387
141	0x40fa18dc	7.8155346
142	0x407d2522	3.9553914
143	0x40f9c585	7.8053613
144	0x40baacd3	5.8335967
145	0x416b309a	14.699366
146	0x417ea2a3	15.914706
147	0x4096353b	4.693998
148	0x408af8f3	4.3428893
149	0x40e8e331	7.2777333
150	0x410092e1	8.035859
151	0x41077e8e	8.468397
152	0x41013cdc	8.077358
153	0x41115bda	9.084925
154	0x40e63919	7.19447
155	0x411e0d72	9.878283
156	0x40d6fd84	6.7184467
157	0x40f2fa81	7.593079
158	0x40e02dce	7.0055914
159	0x41573da7	13.452552
160	0x41220b8b	10.127818
161	0x41280bd7	10.502891
162	0x40917aef	4.5462565
163	0x40d27eba	6.5779696
164	0x41077da7	8.468177
165	0x4102ef60	8.183441
166	0x410c7e91	8.7809
167	0x41186fd5	9.527303
168	0x40c0253e	6.004546
169	0x40b25b40	5.573639
170	0x40d1f10b	6.560674
171	0x40c6b9bf	6.210174
172	0x40b7eed8	5.7479057
173	0x41358d2a	11.346964
174	0x40c7fbd2	6.24949
175	0x40faf939	7.8429227
176	0x40b3b843	5.616243
177	0x40d126b7	6.535976
178	0x41035fb1	8.210862
179	0x40d93dd0	6.7887955
180	0x4101959f	8.099029
181	0x40b97947	5.7960544
182	0x4104ebe9	8.307595
183	0x4100b849	8.0449915
184	0x4136807f	11.406371
185	0x40d12bda	6.536603
186	0x40d27c7d	6.5776963
187	0x41293a72	10.576769
188	0x40cb339c	6.35005
189	0x40be6afb	5.950559
190	0x40cd76b9	6.4207425
191	0x40cbb11c	6.36537
192	0x40f0e453	7.5278716
193	0x40e693ea	7.205556
194	0x4104a823	8.291049
195	0x40bfa058	5.988323
196	0x41277ddd	10.468228
197	0x411e9d67	9.913428
198	0x415e56ed	13.896222
199	0x413241f0	11.141098
200	0x4099a6f7	4.8016315
201	0x41162e4b	9.386302
202	0x40b0c630	5.524193
203	0x40c88026	6.265643
204	0x410cc736	8.7986355
205	0x40a3aa7e	5.114562
206	0x413bdddf	11.741668
207	0x41249723	10.286899
208	0x40a3e8d3	5.122171
209	0x411d27e0	9.822235
210	0x4109ac90	8.6046295
211	0x40c8decb	6.2771964
212	0x410455d3	8.270953
213	0x41040220	8.250519
214	0x4093f74e	4.6239386
215	0x40c23717	6.069225
216	0x40b1e088	5.5586586
217	0x40b364ef	5.606071
218	0x409789c6	4.735568
219	0x410d8a00	8.846191
220	0x4083fcd8	4.1246147
221	0x411abc59	9.670983
222	0x40abac99	5.364819
223	0x40a9a1d1	5.301003
224	0x411f7402	9.965822
225	0x40ce78e8	6.452259
226	0x408c034b	4.375402
227	0x411dbaca	9.858103
228	0x410b2606	8.696783
229	0x409239f1	4.569573
230	0x40d9ec51	6.810097
231	0x40f8e2b9	7.777676
232	0x410cd5c1	8.802186
233	0x40bb7ea3	5.8592086
234	0x4100574e	8.021315
235	0x40eeb4c9	7.4595685
236	0x40f5a3e6	7.676257
237	0x41163f7f	9.390502
238	0x416447a5	14.267491
239	0x40e3b8f1	7.116326
240	0x410c51e9	8.769998
241	0x411053c0	9.020447
242	0x40c75d14	6.230112
243	0x40e301fc	7.093992
244	0x40e2304c	7.0683956
245	0x4105eea8	8.370766
246	0x40ea3a8f	7.3196483
247	0x40a06fd4	5.013651
248	0x40e2aa3e	7.0832815
249	0x4109bed9	8.609094
250	0x40e6a953	7.2081695
251	0x409687d4	4.7040806
252	0x40bf7e80	5.984192
253	0x408f1338	4.471096
254	0x4113f70d	9.247815
255	0x40eb2431	7.348168

net.5.weight f4 [128, 256]
0	0xbd29790c	-0.041375205
1	0xbcc028ac	-0.023456894
2	0x3d96b19a	0.073580936
3	0xbda39022	-0.079864755
4	0x3dbb7199	0.091525264
5	0xbd4473b2	-0.0479619
6	0xbce2d78e	-0.027690675
7	0x3d630d78	0.055432767
8	0xbbac6871	-0.005261474
9	0xbd4e81f7	-0.050416913
10	0x3cbf5ef6	0.02336071
11	0xbac64d6f	-0.0015129278
12	0x3ce51a12	0.027966533
13	0x3c599285	0.013279562
14	0x3bb71318	0.005586993
15	0xbe103e11	-0.14086176
16	0xbbcf2221	-0.006321207
17	0xbe217ede	-0.15771052
18	0xbd7d243b	-0.06180213
19	0x3dbad43e	0.09122513
20	0xbd334827	-0.04376998
21	0x3d9669b7	0.07344382
22	0xbcde46f7	-0.027133448
23	0xbd383200	-0.04496956
24	0xbcd015dd	-0.02540105
25	0xbd030e25	-0.03199591
26	0x3c33cf2a	0.010974685
27	0x3da4dcb9	0.08049912
28	0xbcb444c7	-0.022005452
29	0xbd10c1b8	-0.035340995
30	0x3d080482	0.033207424
31	0x3e23dd4c	0.16002387
32	0x3c22717d	0.009914753
33	0xbd68c9a3	-0.05683292
34	0x39ad9dd6	0.00033114728
35	0x3cc1f0ff	0.023674486
36	0x3d13e4ea	0.03610698
37	0xbe004af8	-0.12528598
38	0x3be4ab2e	0.006978414
39	0xbd6e77e3	-0.0582198
40	0x3d912492	0.07087053
41	0xbddd009d	-0.107911326
42	0x3d516538	0.05112192
43	0x3cdb3286	0.02675749
44	0xbdd637b4	-0.10459843
45	0x3d3ab279	0.04558036
46	0xbd41c8dc	-0.047310695
47	0xbc691b83	-0.014227751
48	0xbd05c240	-0.032655954
49	0xbb58c009	-0.0033073446
50	0x3b6ab918	0.003581589
51	0xbc8128e5	-0.01576657
52	0xbc28ff14	-0.010314722
53	0x3c078bad	0.008273047
54	0x3d9ccbc5	0.076560535
55	0x3c924fec	0.017860375
56	0x3cae3839	0.021267043
57	0x3d1b7b29	0.03795925
58	0x3db07783	0.08616545
59	0xbd9cdb05	-0.07658962
60	0x3cfe671e	0.03105503
61	0xbdcf0411	-0.101081975
62	0x3d59beab	0.05316035
63	0x3c756d63	0.014979693
64	0x3d01dc54	0.031704262
65	0x3c6e3d1c	0.014540937
66	0xbdb2948a	-0.08719738
67	0x3aac6e8b	0.0013155503
68	0x3d343b05	0.044001598
69	0x3de7d11b	0.113191806
70	0xbd59e062	-0.053192504
71	0x3dbdcfd9	0.092681594
72	0xbce3713e	-0.027763959
73	0xbd264d6e	-0.040601186
74	0x3b44627c	0.0029965928
75	0xbc15fbc3	-0.009154263
76	0xbd679327	-0.05653682
77	0xbe1dbbe9	-0.15403713
78	0xbcb4cef4	-0.02207134
79	0xbcdbbade	-0.026822504
80	0xbbd432b6	-0.006475772
81	0x3d3d7275	0.046251733
82	0x3dd44284	0.10364249
83	0x3b3a2cf3	0.002840814
84	0x3d8dd893	0.06926074
85	0xbc02da25	-0.00798658
86	0xbd0d57d4	-0.034507588
87	0xbbaf9bf5	-0.0053591677
88	0x3c2dfaae	0.010618849
89	0x3d187f81	0.037230972
90	0xbc6ceaef	-0.014460309
91	0x3da03b3d	0.07823799
92	0xbd24d4fb	-0.040242177
93	0xbb9a3bfb	-0.0047068573
94	0xbbdfc4e3	-0.0068288906
95	0xbd8027af	-0.06257569
96	0xbbc668c3	-0.006054969
97	0xbd7d3b30	-0.061824024
98	0xbd2a4863	-0.04157294
99	0x3d67bdac	0.05657737
100	0x3d2c56f6	0.04207512
101	0x3d8a7e8d	0.06762419
102	0x3db67c2c	0.08910403
103	0x3c8d46cd	0.017245675
104	0x3cc3f13b	0.023918739
105	0x3d8ff42d	0.07028995
106	0xbe025a38	-0.12729728
107	0x3dab1acd	0.08354721
108	0xbd0e7d5b	-0.034787517
109	0x3d36268b	0.04447035
110	0xbd309d76	-0.043118916
111	0xbbd510d7	-0.0065022516
112	0xbc7cf1e1	-0.015438528
113	0x3d24f390	0.04027134
114	0x3d3277de	0.043571346
115	0x3c8efba4	0.017453976
116	0x3dc6d9f0	0.09709537
117	0xbd0e3ea6	-0.034727715
118	0xbc630a49	-0.013857433
119	0x3ce1587c	0.027508013
120	0x3cbdd877	0.023174508
121	0xbd5514fe	-0.052021973
122	0x3e339cd0	0.17540288
123	0x3d20275f	0.039100047
124	0xbcc53404	-0.024072655
125	0xbc0b2ed3	-0.0084950505
126	0xbbc2c01d	-0.005943312
127	0x3b4d757e	0.0031350548
128	0xbd82792c	-0.06370768
129	0xbd94869b	-0.072522365
130	0x3d82c247	0.06384712
131	0xbe004ece	-0.12530062
132	0xbd7f18bd	-0.06227945
133	0x3d7c1184	0.06154014
134	0x3d0fe680	0.03513193
135	0x3c24fc00	0.010069847
136	0xbd99ff48	-0.07519394
137	0xbb471e12	-0.0030382914
138	0x3c815b80	0.0157907
139	0xbdb26cd4	-0.087121636
140	0xbdc806cd	-0.09766922
141	0xbdc7173c	-0.097212285
142	0xbd30ef76	-0.043197118
143	0x3cf4da89	0.029889362
144	0xbd11c4e7	-0.03558817
145	0x3da03717	0.078230076
146	0x3e05dffd	0.13073726
147	0xbbdeb44a	-0.0067963945
148	0x3c32cd26	0.010913169
149	0xbcde470e	-0.02713349
150	0xbe177974	-0.14792424
151	0xbd242b79	-0.04008052
152	0xbd6fac3b	-0.05851386
153	0x3dc0fb18	0.09422892
154	0x3d3170cd	0.043320466
155	0x3dc95c12	0.09832014
156	0x3bc5793a	0.006026414
157	0xbd191394	-0.037372187
158	0xbd2b9bfa	-0.041896798
159	0x3d52b912	0.051446028
160	0x3da628b6	0.08113234
161	0xbe33ca73	-0.17557697
162	0x3da13378	0.07871145
163	0x3ca1f51f	0.019770203
164	0xbd78cf29	-0.06074444
165	0x3c0d1155	0.008610089
166	0xbdd267ac	-0.1027368
167	0xbd4340dc	-0.047669277
168	0x3d343b37	0.044001784
169	0x3ca80093	0.020508086
170	0x3dc5e8b2	0.09663524
171	0x3d1db545	0.03850295
172	0xbc1ea51a	-0.009682918
173	0xba64627e	-0.0008712186
174	0xbcfb8bcb	-0.030706307
175	0x3d63966a	0.055563368
176	0xbdc2ceb3	-0.09512081
177	0x3c23517d	0.009968159
178	0x3d37e348	0.044894487
179	0x3d183fa6	0.037170075
180	0x3be3705b	0.006940884
181	0x3c4a548f	0.012349262
182	0x3de7fa95	0.113270916
183	0xbd8e7d35	-0.06957475
184	0xbdb8e2f3	-0.09027662
185	0x3e0305d3	0.1279519
186	0xbb810c4b	-0.003938233
187	0x3cbd1936	0.02308331
188	0x3bea1e98	0.0071447603
189	0xbcbe025c	-0.023194484
190	0xbd4775a5	-0.04869618
191	0x3b73e40b	0.0037214782
192	0x3d08fa86	0.033442043
193	0xbd026de4	-0.03184308
194	0xbd2f950d	-0.042866755
195	0xbce7ba73	-0.028287148
196	0x3cbb4b5d	0.022863084
197	0x3ba73d64	0.005103754
198	0xbc1908ea	-0.009340504
199	0x3d64d22b	0.055864494
200	0x3c3891ff	0.011265277
201	0xbcccf021	-0.025016846
202	0xbb911cbd	-0.0044284747
203	0xbd60853d	-0.054814566
204	0xbde99a8d	-0.11406431
205	0xbdd66093	-0.10467639
206	0x3dc429fe	0.09578322
207	0xbe2e3da3	-0.170157
208	0xbb81043b	-0.003937272
209	0xbe4f094d	-0.20218392
210	0x3d8e36de	0.06944059
211	0x3b3b609c	0.002859152
212	0x3d9c819a	0.07641907
213	0xbd8e47d6	-0.06947295
214	0xbe4098a7	-0.18808232
215	0x3d1005a0	0.035161614
216	0x3d0b84c6	0.03406217
217	0x3a36d9f8	0.0006975229
218	0xbd2f10e9	-0.042740736
219	0xbd69542c	-0.05696504
220	0xbd21fdcc	-0.03954868
221	0x3d490650	0.049078286
222	0x3d1de98f	0.038552817
223	0x3d44f813	0.048088145
224	0x3d64d000	0.055862427
225	0xbd16962f	-0.03676432
226	0xbc1c6b1b	-0.00954702
227	0xbc5d7ec1	-0.01351899
228	0xbdcadc2d	-0.099052764
229	0x3d370db5	0.044690806
230	0xbbca91a6	-0.0061819134
231	0x3bbcaf5c	0.005758209
232	0x3d0da994	0.03458555
233	0xbd338627	-0.04382911
234	0xbcbd1b66	-0.023084354
235	0x3d63c4a3	0.05560745
236	0x3c82f779	0.015987145
237	0xbdd32080	-0.10308933
238	0xbc4fc521	-0.012681277
239	0xbdfdf3b0	-0.12399995
240	0x3d0b8ca4	0.034069672
241	0xbe243cac	-0.1603877
242	0xbdaad4fa	-0.08341403
243	0x3cfccc73	0.030859208
244	0xbd70a5f5	-0.05875202
245	0x3dc34e0b	0.0953637
246	0xbcce733e	-0.025201436
247	0x3d9c4d4c	0.07631931
248	0xbd494e61	-0.049147014
249	0xbd1db13c	-0.038499102
250	0xbdefcf75	-0.11709491
251	0x3cf4cbfd	0.029882425
252	0x3bf1c9c1	0.0073787873
253	0x3c054566	0.008134222
254	0xbcbbb80b	-0.022914907
255	0x3d6d5cdf	0.057949897

net.5.bias f4 [128]
0	0x3d24b296	0.040209375
1	0xbd475112	-0.0486613
2	0xbd6b4fb6	-0.057449065
3	0xbbf8f847	-0.0075979563
4	0xbd1685fb	-0.036748867
5	0x3cf5ba20	0.029995978
6	0xbd51ceb5	-0.05122252
7	0x3cb9688a	0.022632856
8	0x3c4e5e1d	0.012595681
9	0xbc00c88f	-0.007860317
10	0x3d1c31e7	0.038133528
11	0x3c2df47f	0.010617374
12	0x3cefb472	0.029260848
13	0x3d17686a	0.03696481
14	0x3c040856	0.008058628
15	0x3d1d294a	0.038369454
16	0xbd7345f6	-0.05939289
17	0x3b36eb25	0.0027911153
18	0x3d425100	0.04744053
19	0x3cbadaa0	0.022809327
20	0x3cd4789e	0.025936421
21	0xbd3975f1	-0.045278493
22	0x3cc1fea1	0.023680987
23	0xbd281ed2	-0.041045018
24	0x3c1d1f49	0.0095899785
25	0xbbcf32ef	-0.0063232104
26	0xbc677d61	-0.014129014
27	0x3be9262c	0.007115146
28	0xbc20e2e4	-0.00981972
29	0xbcc0378d	-0.023463989
30	0x3d522860	0.051308036
31	0xbcdd7497	-0.027033133
32	0x3ce43165	0.027855584
33	0x3d587859	0.052849147
34	0x3c9fdd41	0.019514682
35	0xbd70aa3b	-0.058756094
36	0xbbffbec8	-0.0078047253
37	0x3c46d6e2	0.012136193
38	0x3d01c910	0.03168589
39	0xbccbb50d	-0.024866605
40	0x3d20d851	0.039268795
41	0x3d44cd8b	0.048047584
42	0xbc569a57	-0.013098321
43	0xbcb0ac54	-0.021566547
44	0xbd11483c	-0.03546928
45	0xbcc3f1c1	-0.023918988
46	0x3a7c8778	0.00096332235
47	0xbc2704a6	-0.010193979
48	0xbcd308bb	-0.025760999
49	0x3d6bab0d	0.057536174
50	0xbd3b4188	-0.045716792
51	0xbd0195a7	-0.03163686
52	0x3d7f87de	0.062385432
53	0x3d36390c	0.044487998
54	0xbcfc860a	-0.030825634
55	0x3d2932ff	0.0413084
56	0x3c887aa3	0.01666004
57	0x3d4e0d30	0.050305545
58	0xbcb7b6ed	-0.022426093
59	0x3d20da46	0.03927066
60	0xbd2ed2a0	-0.042681336
61	0x3d3e0c49	0.046398435
62	0xbc42a82b	-0.011880915
63	0xbd79f859	-0.06102786
64	0xbd5da434	-0.054111674
65	0xbac7bc3a	-0.0015238591
66	0xbc6200b7	-0.013794116
67	0xbae0cc04	-0.0017150645
68	0x3c995ba4	0.018720455
69	0xbb5cf866	-0.0033717393
70	0x3d50872b	0.050910156
71	0xbc47e989	-0.012201675
72	0x3c67dfc3	0.01415247
73	0x3d33476d	0.04376929
74	0x3c524d9a	0.0128358845
75	0x3cd5a3ec	0.02607914
76	0xbd81316a	-0.06308253
77	0xbd7b43f2	-0.061344095
78	0xbd6503dd	-0.055911887
79	0x3c1f25ce	0.009713603
80	0x3d0a7e36	0.03381177
81	0x3d363a6a	0.0444893
82	0x3c6e94e0	0.014561862
83	0x3d4caa17	0.049966898
84	0x3ae1523f	0.0017190649
85	0xbd0a73da	-0.03380189
86	0x3d16486c	0.03669016
87	0x3d4bdce8	0.04977122
88	0x3d69d4e7	0.057087805
89	0xba52fa33	-0.0008048147
90	0xbceb3736	-0.02871285
91	0x3cd0c302	0.025483612
92	0xbbfe778a	-0.007765715
93	0xbd0ed7b5	-0.034873683
94	0xbcc3a90f	-0.023884324
95	0xbd5ce457	-0.0539287
96	0xbb92c9e4	-0.0044796336
97	0xbd71786c	-0.058952734
98	0x3ce42a03	0.027852064
99	0x3c50ba60	0.012739748
100	0xbd72e34c	-0.0592988
101	0xbd61f88e	-0.05516868
102	0xbbc7eef9	-0.006101486
103	0x3cdaecb1	0.026724191
104	0x3d4c36f2	0.049857087
105	0x3d2195b3	0.039449405
106	0x3d554b65	0.052073855
107	0x3ba737bf	0.005103081
108	0x3c951183	0.018196827
109	0xbc75147c	-0.014958497
110	0xbd1b21f2	-0.03787417
111	0x3ca3cea1	0.01999599
112	0x3d004e0f	0.031324442
113	0x3d3f80d2	0.046753712
114	0xbd526562	-0.051366217
115	0xbd374f48	-0.044753343
116	0xbcae6818	-0.02128987
117	0x3af29d2c	0.0018509976
118	0xbd309329	-0.043109093
119	0x3d627799	0.05528984
120	0xbd3b7bb4	-0.04577227
121	0xbd2c0045	-0.041992445
122	0xbd553851	-0.05205566
123	0xbbb3ac57	-0.005483191
124	0x3d29dad5	0.04146846
125	0xbd0bee5c	-0.034162864
126	0x3cb5b60b	0.022181531
127	0x3d5b22da	0.053500034
